__________________________________________________________________________________________________
Layer (type)                    Output Shape         Param #     Connected to                     
==================================================================================================
left_input (InputLayer)         (None, 384, 512, 3)  0                                            
__________________________________________________________________________________________________
right_input (InputLayer)        (None, 384, 512, 3)  0                                            
__________________________________________________________________________________________________
conv2d_31 (Conv2D)              (None, 384, 512, 32) 128         left_input[0][0]                 
__________________________________________________________________________________________________
conv2d (Conv2D)                 (None, 384, 512, 32) 128         right_input[0][0]                
__________________________________________________________________________________________________
conv2d_32 (Conv2D)              (None, 384, 512, 8)  264         conv2d_31[0][0]                  
__________________________________________________________________________________________________
conv2d_1 (Conv2D)               (None, 384, 512, 8)  264         conv2d[0][0]                     
__________________________________________________________________________________________________
batch_normalization_12 (BatchNo (None, 384, 512, 8)  32          conv2d_32[0][0]                  
__________________________________________________________________________________________________
batch_normalization (BatchNorma (None, 384, 512, 8)  32          conv2d_1[0][0]                   
__________________________________________________________________________________________________
activation_12 (Activation)      (None, 384, 512, 8)  0           batch_normalization_12[0][0]     
__________________________________________________________________________________________________
activation (Activation)         (None, 384, 512, 8)  0           batch_normalization[0][0]        
__________________________________________________________________________________________________
conv2d_33 (Conv2D)              (None, 384, 512, 4)  292         activation_12[0][0]              
__________________________________________________________________________________________________
conv2d_2 (Conv2D)               (None, 384, 512, 4)  292         activation[0][0]                 
__________________________________________________________________________________________________
dropout_12 (Dropout)            (None, 384, 512, 4)  0           conv2d_33[0][0]                  
__________________________________________________________________________________________________
dropout (Dropout)               (None, 384, 512, 4)  0           conv2d_2[0][0]                   
__________________________________________________________________________________________________
concatenate_15 (Concatenate)    (None, 384, 512, 36) 0           conv2d_31[0][0]                  
                                                                 dropout_12[0][0]                 
__________________________________________________________________________________________________
concatenate (Concatenate)       (None, 384, 512, 36) 0           conv2d[0][0]                     
                                                                 dropout[0][0]                    
__________________________________________________________________________________________________
conv2d_34 (Conv2D)              (None, 384, 512, 8)  296         concatenate_15[0][0]             
__________________________________________________________________________________________________
conv2d_3 (Conv2D)               (None, 384, 512, 8)  296         concatenate[0][0]                
__________________________________________________________________________________________________
batch_normalization_13 (BatchNo (None, 384, 512, 8)  32          conv2d_34[0][0]                  
__________________________________________________________________________________________________
batch_normalization_1 (BatchNor (None, 384, 512, 8)  32          conv2d_3[0][0]                   
__________________________________________________________________________________________________
activation_13 (Activation)      (None, 384, 512, 8)  0           batch_normalization_13[0][0]     
__________________________________________________________________________________________________
activation_1 (Activation)       (None, 384, 512, 8)  0           batch_normalization_1[0][0]      
__________________________________________________________________________________________________
conv2d_35 (Conv2D)              (None, 384, 512, 4)  292         activation_13[0][0]              
__________________________________________________________________________________________________
conv2d_4 (Conv2D)               (None, 384, 512, 4)  292         activation_1[0][0]               
__________________________________________________________________________________________________
dropout_13 (Dropout)            (None, 384, 512, 4)  0           conv2d_35[0][0]                  
__________________________________________________________________________________________________
dropout_1 (Dropout)             (None, 384, 512, 4)  0           conv2d_4[0][0]                   
__________________________________________________________________________________________________
concatenate_16 (Concatenate)    (None, 384, 512, 40) 0           concatenate_15[0][0]             
                                                                 dropout_13[0][0]                 
__________________________________________________________________________________________________
concatenate_1 (Concatenate)     (None, 384, 512, 40) 0           concatenate[0][0]                
                                                                 dropout_1[0][0]                  
__________________________________________________________________________________________________
conv2d_36 (Conv2D)              (None, 384, 512, 8)  328         concatenate_16[0][0]             
__________________________________________________________________________________________________
conv2d_5 (Conv2D)               (None, 384, 512, 8)  328         concatenate_1[0][0]              
__________________________________________________________________________________________________
batch_normalization_14 (BatchNo (None, 384, 512, 8)  32          conv2d_36[0][0]                  
__________________________________________________________________________________________________
batch_normalization_2 (BatchNor (None, 384, 512, 8)  32          conv2d_5[0][0]                   
__________________________________________________________________________________________________
activation_14 (Activation)      (None, 384, 512, 8)  0           batch_normalization_14[0][0]     
__________________________________________________________________________________________________
activation_2 (Activation)       (None, 384, 512, 8)  0           batch_normalization_2[0][0]      
__________________________________________________________________________________________________
conv2d_37 (Conv2D)              (None, 384, 512, 4)  292         activation_14[0][0]              
__________________________________________________________________________________________________
conv2d_6 (Conv2D)               (None, 384, 512, 4)  292         activation_2[0][0]               
__________________________________________________________________________________________________
dropout_14 (Dropout)            (None, 384, 512, 4)  0           conv2d_37[0][0]                  
__________________________________________________________________________________________________
dropout_2 (Dropout)             (None, 384, 512, 4)  0           conv2d_6[0][0]                   
__________________________________________________________________________________________________
concatenate_17 (Concatenate)    (None, 384, 512, 12) 0           dropout_12[0][0]                 
                                                                 dropout_13[0][0]                 
                                                                 dropout_14[0][0]                 
__________________________________________________________________________________________________
concatenate_2 (Concatenate)     (None, 384, 512, 12) 0           dropout[0][0]                    
                                                                 dropout_1[0][0]                  
                                                                 dropout_2[0][0]                  
__________________________________________________________________________________________________
concatenate_18 (Concatenate)    (None, 384, 512, 44) 0           conv2d_31[0][0]                  
                                                                 concatenate_17[0][0]             
__________________________________________________________________________________________________
concatenate_3 (Concatenate)     (None, 384, 512, 44) 0           conv2d[0][0]                     
                                                                 concatenate_2[0][0]              
__________________________________________________________________________________________________
conv2d_38 (Conv2D)              (None, 384, 512, 22) 990         concatenate_18[0][0]             
__________________________________________________________________________________________________
conv2d_7 (Conv2D)               (None, 384, 512, 22) 990         concatenate_3[0][0]              
__________________________________________________________________________________________________
conv2d_39 (Conv2D)              (None, 192, 256, 22) 12122       conv2d_38[0][0]                  
__________________________________________________________________________________________________
conv2d_8 (Conv2D)               (None, 192, 256, 22) 12122       conv2d_7[0][0]                   
__________________________________________________________________________________________________
conv2d_40 (Conv2D)              (None, 192, 256, 8)  184         conv2d_39[0][0]                  
__________________________________________________________________________________________________
conv2d_9 (Conv2D)               (None, 192, 256, 8)  184         conv2d_8[0][0]                   
__________________________________________________________________________________________________
batch_normalization_15 (BatchNo (None, 192, 256, 8)  32          conv2d_40[0][0]                  
__________________________________________________________________________________________________
batch_normalization_3 (BatchNor (None, 192, 256, 8)  32          conv2d_9[0][0]                   
__________________________________________________________________________________________________
activation_15 (Activation)      (None, 192, 256, 8)  0           batch_normalization_15[0][0]     
__________________________________________________________________________________________________
activation_3 (Activation)       (None, 192, 256, 8)  0           batch_normalization_3[0][0]      
__________________________________________________________________________________________________
conv2d_41 (Conv2D)              (None, 192, 256, 4)  292         activation_15[0][0]              
__________________________________________________________________________________________________
conv2d_10 (Conv2D)              (None, 192, 256, 4)  292         activation_3[0][0]               
__________________________________________________________________________________________________
dropout_15 (Dropout)            (None, 192, 256, 4)  0           conv2d_41[0][0]                  
__________________________________________________________________________________________________
dropout_3 (Dropout)             (None, 192, 256, 4)  0           conv2d_10[0][0]                  
__________________________________________________________________________________________________
concatenate_19 (Concatenate)    (None, 192, 256, 26) 0           conv2d_39[0][0]                  
                                                                 dropout_15[0][0]                 
__________________________________________________________________________________________________
concatenate_4 (Concatenate)     (None, 192, 256, 26) 0           conv2d_8[0][0]                   
                                                                 dropout_3[0][0]                  
__________________________________________________________________________________________________
conv2d_42 (Conv2D)              (None, 192, 256, 8)  216         concatenate_19[0][0]             
__________________________________________________________________________________________________
conv2d_11 (Conv2D)              (None, 192, 256, 8)  216         concatenate_4[0][0]              
__________________________________________________________________________________________________
batch_normalization_16 (BatchNo (None, 192, 256, 8)  32          conv2d_42[0][0]                  
__________________________________________________________________________________________________
batch_normalization_4 (BatchNor (None, 192, 256, 8)  32          conv2d_11[0][0]                  
__________________________________________________________________________________________________
activation_16 (Activation)      (None, 192, 256, 8)  0           batch_normalization_16[0][0]     
__________________________________________________________________________________________________
activation_4 (Activation)       (None, 192, 256, 8)  0           batch_normalization_4[0][0]      
__________________________________________________________________________________________________
conv2d_43 (Conv2D)              (None, 192, 256, 4)  292         activation_16[0][0]              
__________________________________________________________________________________________________
conv2d_12 (Conv2D)              (None, 192, 256, 4)  292         activation_4[0][0]               
__________________________________________________________________________________________________
dropout_16 (Dropout)            (None, 192, 256, 4)  0           conv2d_43[0][0]                  
__________________________________________________________________________________________________
dropout_4 (Dropout)             (None, 192, 256, 4)  0           conv2d_12[0][0]                  
__________________________________________________________________________________________________
concatenate_20 (Concatenate)    (None, 192, 256, 30) 0           concatenate_19[0][0]             
                                                                 dropout_16[0][0]                 
__________________________________________________________________________________________________
concatenate_5 (Concatenate)     (None, 192, 256, 30) 0           concatenate_4[0][0]              
                                                                 dropout_4[0][0]                  
__________________________________________________________________________________________________
conv2d_44 (Conv2D)              (None, 192, 256, 8)  248         concatenate_20[0][0]             
__________________________________________________________________________________________________
conv2d_13 (Conv2D)              (None, 192, 256, 8)  248         concatenate_5[0][0]              
__________________________________________________________________________________________________
batch_normalization_17 (BatchNo (None, 192, 256, 8)  32          conv2d_44[0][0]                  
__________________________________________________________________________________________________
batch_normalization_5 (BatchNor (None, 192, 256, 8)  32          conv2d_13[0][0]                  
__________________________________________________________________________________________________
activation_17 (Activation)      (None, 192, 256, 8)  0           batch_normalization_17[0][0]     
__________________________________________________________________________________________________
activation_5 (Activation)       (None, 192, 256, 8)  0           batch_normalization_5[0][0]      
__________________________________________________________________________________________________
conv2d_45 (Conv2D)              (None, 192, 256, 4)  292         activation_17[0][0]              
__________________________________________________________________________________________________
conv2d_14 (Conv2D)              (None, 192, 256, 4)  292         activation_5[0][0]               
__________________________________________________________________________________________________
dropout_17 (Dropout)            (None, 192, 256, 4)  0           conv2d_45[0][0]                  
__________________________________________________________________________________________________
dropout_5 (Dropout)             (None, 192, 256, 4)  0           conv2d_14[0][0]                  
__________________________________________________________________________________________________
concatenate_21 (Concatenate)    (None, 192, 256, 12) 0           dropout_15[0][0]                 
                                                                 dropout_16[0][0]                 
                                                                 dropout_17[0][0]                 
__________________________________________________________________________________________________
concatenate_6 (Concatenate)     (None, 192, 256, 12) 0           dropout_3[0][0]                  
                                                                 dropout_4[0][0]                  
                                                                 dropout_5[0][0]                  
__________________________________________________________________________________________________
concatenate_22 (Concatenate)    (None, 192, 256, 34) 0           conv2d_39[0][0]                  
                                                                 concatenate_21[0][0]             
__________________________________________________________________________________________________
concatenate_7 (Concatenate)     (None, 192, 256, 34) 0           conv2d_8[0][0]                   
                                                                 concatenate_6[0][0]              
__________________________________________________________________________________________________
conv2d_46 (Conv2D)              (None, 192, 256, 17) 595         concatenate_22[0][0]             
__________________________________________________________________________________________________
conv2d_15 (Conv2D)              (None, 192, 256, 17) 595         concatenate_7[0][0]              
__________________________________________________________________________________________________
conv2d_47 (Conv2D)              (None, 96, 128, 17)  7242        conv2d_46[0][0]                  
__________________________________________________________________________________________________
conv2d_16 (Conv2D)              (None, 96, 128, 17)  7242        conv2d_15[0][0]                  
__________________________________________________________________________________________________
conv2d_48 (Conv2D)              (None, 96, 128, 8)   144         conv2d_47[0][0]                  
__________________________________________________________________________________________________
conv2d_17 (Conv2D)              (None, 96, 128, 8)   144         conv2d_16[0][0]                  
__________________________________________________________________________________________________
batch_normalization_18 (BatchNo (None, 96, 128, 8)   32          conv2d_48[0][0]                  
__________________________________________________________________________________________________
batch_normalization_6 (BatchNor (None, 96, 128, 8)   32          conv2d_17[0][0]                  
__________________________________________________________________________________________________
activation_18 (Activation)      (None, 96, 128, 8)   0           batch_normalization_18[0][0]     
__________________________________________________________________________________________________
activation_6 (Activation)       (None, 96, 128, 8)   0           batch_normalization_6[0][0]      
__________________________________________________________________________________________________
conv2d_49 (Conv2D)              (None, 96, 128, 4)   292         activation_18[0][0]              
__________________________________________________________________________________________________
conv2d_18 (Conv2D)              (None, 96, 128, 4)   292         activation_6[0][0]               
__________________________________________________________________________________________________
dropout_18 (Dropout)            (None, 96, 128, 4)   0           conv2d_49[0][0]                  
__________________________________________________________________________________________________
dropout_6 (Dropout)             (None, 96, 128, 4)   0           conv2d_18[0][0]                  
__________________________________________________________________________________________________
concatenate_23 (Concatenate)    (None, 96, 128, 21)  0           conv2d_47[0][0]                  
                                                                 dropout_18[0][0]                 
__________________________________________________________________________________________________
concatenate_8 (Concatenate)     (None, 96, 128, 21)  0           conv2d_16[0][0]                  
                                                                 dropout_6[0][0]                  
__________________________________________________________________________________________________
conv2d_50 (Conv2D)              (None, 96, 128, 8)   176         concatenate_23[0][0]             
__________________________________________________________________________________________________
conv2d_19 (Conv2D)              (None, 96, 128, 8)   176         concatenate_8[0][0]              
__________________________________________________________________________________________________
batch_normalization_19 (BatchNo (None, 96, 128, 8)   32          conv2d_50[0][0]                  
__________________________________________________________________________________________________
batch_normalization_7 (BatchNor (None, 96, 128, 8)   32          conv2d_19[0][0]                  
__________________________________________________________________________________________________
activation_19 (Activation)      (None, 96, 128, 8)   0           batch_normalization_19[0][0]     
__________________________________________________________________________________________________
activation_7 (Activation)       (None, 96, 128, 8)   0           batch_normalization_7[0][0]      
__________________________________________________________________________________________________
conv2d_51 (Conv2D)              (None, 96, 128, 4)   292         activation_19[0][0]              
__________________________________________________________________________________________________
conv2d_20 (Conv2D)              (None, 96, 128, 4)   292         activation_7[0][0]               
__________________________________________________________________________________________________
dropout_19 (Dropout)            (None, 96, 128, 4)   0           conv2d_51[0][0]                  
__________________________________________________________________________________________________
dropout_7 (Dropout)             (None, 96, 128, 4)   0           conv2d_20[0][0]                  
__________________________________________________________________________________________________
concatenate_24 (Concatenate)    (None, 96, 128, 25)  0           concatenate_23[0][0]             
                                                                 dropout_19[0][0]                 
__________________________________________________________________________________________________
concatenate_9 (Concatenate)     (None, 96, 128, 25)  0           concatenate_8[0][0]              
                                                                 dropout_7[0][0]                  
__________________________________________________________________________________________________
conv2d_52 (Conv2D)              (None, 96, 128, 8)   208         concatenate_24[0][0]             
__________________________________________________________________________________________________
conv2d_21 (Conv2D)              (None, 96, 128, 8)   208         concatenate_9[0][0]              
__________________________________________________________________________________________________
batch_normalization_20 (BatchNo (None, 96, 128, 8)   32          conv2d_52[0][0]                  
__________________________________________________________________________________________________
batch_normalization_8 (BatchNor (None, 96, 128, 8)   32          conv2d_21[0][0]                  
__________________________________________________________________________________________________
activation_20 (Activation)      (None, 96, 128, 8)   0           batch_normalization_20[0][0]     
__________________________________________________________________________________________________
activation_8 (Activation)       (None, 96, 128, 8)   0           batch_normalization_8[0][0]      
__________________________________________________________________________________________________
conv2d_53 (Conv2D)              (None, 96, 128, 4)   292         activation_20[0][0]              
__________________________________________________________________________________________________
conv2d_22 (Conv2D)              (None, 96, 128, 4)   292         activation_8[0][0]               
__________________________________________________________________________________________________
dropout_20 (Dropout)            (None, 96, 128, 4)   0           conv2d_53[0][0]                  
__________________________________________________________________________________________________
dropout_8 (Dropout)             (None, 96, 128, 4)   0           conv2d_22[0][0]                  
__________________________________________________________________________________________________
concatenate_25 (Concatenate)    (None, 96, 128, 12)  0           dropout_18[0][0]                 
                                                                 dropout_19[0][0]                 
                                                                 dropout_20[0][0]                 
__________________________________________________________________________________________________
concatenate_10 (Concatenate)    (None, 96, 128, 12)  0           dropout_6[0][0]                  
                                                                 dropout_7[0][0]                  
                                                                 dropout_8[0][0]                  
__________________________________________________________________________________________________
concatenate_26 (Concatenate)    (None, 96, 128, 29)  0           conv2d_47[0][0]                  
                                                                 concatenate_25[0][0]             
__________________________________________________________________________________________________
concatenate_11 (Concatenate)    (None, 96, 128, 29)  0           conv2d_16[0][0]                  
                                                                 concatenate_10[0][0]             
__________________________________________________________________________________________________
conv2d_54 (Conv2D)              (None, 96, 128, 14)  420         concatenate_26[0][0]             
__________________________________________________________________________________________________
conv2d_23 (Conv2D)              (None, 96, 128, 14)  420         concatenate_11[0][0]             
__________________________________________________________________________________________________
conv2d_55 (Conv2D)              (None, 48, 64, 14)   4914        conv2d_54[0][0]                  
__________________________________________________________________________________________________
conv2d_24 (Conv2D)              (None, 48, 64, 14)   4914        conv2d_23[0][0]                  
__________________________________________________________________________________________________
conv2d_56 (Conv2D)              (None, 48, 64, 8)    120         conv2d_55[0][0]                  
__________________________________________________________________________________________________
conv2d_25 (Conv2D)              (None, 48, 64, 8)    120         conv2d_24[0][0]                  
__________________________________________________________________________________________________
batch_normalization_21 (BatchNo (None, 48, 64, 8)    32          conv2d_56[0][0]                  
__________________________________________________________________________________________________
batch_normalization_9 (BatchNor (None, 48, 64, 8)    32          conv2d_25[0][0]                  
__________________________________________________________________________________________________
activation_21 (Activation)      (None, 48, 64, 8)    0           batch_normalization_21[0][0]     
__________________________________________________________________________________________________
activation_9 (Activation)       (None, 48, 64, 8)    0           batch_normalization_9[0][0]      
__________________________________________________________________________________________________
conv2d_57 (Conv2D)              (None, 48, 64, 4)    292         activation_21[0][0]              
__________________________________________________________________________________________________
conv2d_26 (Conv2D)              (None, 48, 64, 4)    292         activation_9[0][0]               
__________________________________________________________________________________________________
dropout_21 (Dropout)            (None, 48, 64, 4)    0           conv2d_57[0][0]                  
__________________________________________________________________________________________________
dropout_9 (Dropout)             (None, 48, 64, 4)    0           conv2d_26[0][0]                  
__________________________________________________________________________________________________
concatenate_27 (Concatenate)    (None, 48, 64, 18)   0           conv2d_55[0][0]                  
                                                                 dropout_21[0][0]                 
__________________________________________________________________________________________________
concatenate_12 (Concatenate)    (None, 48, 64, 18)   0           conv2d_24[0][0]                  
                                                                 dropout_9[0][0]                  
__________________________________________________________________________________________________
conv2d_58 (Conv2D)              (None, 48, 64, 8)    152         concatenate_27[0][0]             
__________________________________________________________________________________________________
conv2d_27 (Conv2D)              (None, 48, 64, 8)    152         concatenate_12[0][0]             
__________________________________________________________________________________________________
batch_normalization_22 (BatchNo (None, 48, 64, 8)    32          conv2d_58[0][0]                  
__________________________________________________________________________________________________
batch_normalization_10 (BatchNo (None, 48, 64, 8)    32          conv2d_27[0][0]                  
__________________________________________________________________________________________________
activation_22 (Activation)      (None, 48, 64, 8)    0           batch_normalization_22[0][0]     
__________________________________________________________________________________________________
activation_10 (Activation)      (None, 48, 64, 8)    0           batch_normalization_10[0][0]     
__________________________________________________________________________________________________
conv2d_59 (Conv2D)              (None, 48, 64, 4)    292         activation_22[0][0]              
__________________________________________________________________________________________________
conv2d_28 (Conv2D)              (None, 48, 64, 4)    292         activation_10[0][0]              
__________________________________________________________________________________________________
dropout_22 (Dropout)            (None, 48, 64, 4)    0           conv2d_59[0][0]                  
__________________________________________________________________________________________________
dropout_10 (Dropout)            (None, 48, 64, 4)    0           conv2d_28[0][0]                  
__________________________________________________________________________________________________
concatenate_28 (Concatenate)    (None, 48, 64, 22)   0           concatenate_27[0][0]             
                                                                 dropout_22[0][0]                 
__________________________________________________________________________________________________
concatenate_13 (Concatenate)    (None, 48, 64, 22)   0           concatenate_12[0][0]             
                                                                 dropout_10[0][0]                 
__________________________________________________________________________________________________
conv2d_60 (Conv2D)              (None, 48, 64, 8)    184         concatenate_28[0][0]             
__________________________________________________________________________________________________
conv2d_29 (Conv2D)              (None, 48, 64, 8)    184         concatenate_13[0][0]             
__________________________________________________________________________________________________
batch_normalization_23 (BatchNo (None, 48, 64, 8)    32          conv2d_60[0][0]                  
__________________________________________________________________________________________________
batch_normalization_11 (BatchNo (None, 48, 64, 8)    32          conv2d_29[0][0]                  
__________________________________________________________________________________________________
activation_23 (Activation)      (None, 48, 64, 8)    0           batch_normalization_23[0][0]     
__________________________________________________________________________________________________
activation_11 (Activation)      (None, 48, 64, 8)    0           batch_normalization_11[0][0]     
__________________________________________________________________________________________________
conv2d_61 (Conv2D)              (None, 48, 64, 4)    292         activation_23[0][0]              
__________________________________________________________________________________________________
conv2d_30 (Conv2D)              (None, 48, 64, 4)    292         activation_11[0][0]              
__________________________________________________________________________________________________
dropout_23 (Dropout)            (None, 48, 64, 4)    0           conv2d_61[0][0]                  
__________________________________________________________________________________________________
dropout_11 (Dropout)            (None, 48, 64, 4)    0           conv2d_30[0][0]                  
__________________________________________________________________________________________________
concatenate_29 (Concatenate)    (None, 48, 64, 12)   0           dropout_21[0][0]                 
                                                                 dropout_22[0][0]                 
                                                                 dropout_23[0][0]                 
__________________________________________________________________________________________________
concatenate_14 (Concatenate)    (None, 48, 64, 12)   0           dropout_9[0][0]                  
                                                                 dropout_10[0][0]                 
                                                                 dropout_11[0][0]                 
__________________________________________________________________________________________________
concatenate_30 (Concatenate)    (None, 48, 64, 24)   0           concatenate_29[0][0]             
                                                                 concatenate_14[0][0]             
__________________________________________________________________________________________________
conv2d_transpose (Conv2DTranspo (None, 96, 128, 12)  1164        concatenate_30[0][0]             
__________________________________________________________________________________________________
concatenate_31 (Concatenate)    (None, 96, 128, 70)  0           conv2d_transpose[0][0]           
                                                                 concatenate_26[0][0]             
                                                                 concatenate_11[0][0]             
__________________________________________________________________________________________________
conv2d_62 (Conv2D)              (None, 96, 128, 8)   568         concatenate_31[0][0]             
__________________________________________________________________________________________________
batch_normalization_24 (BatchNo (None, 96, 128, 8)   32          conv2d_62[0][0]                  
__________________________________________________________________________________________________
activation_24 (Activation)      (None, 96, 128, 8)   0           batch_normalization_24[0][0]     
__________________________________________________________________________________________________
conv2d_63 (Conv2D)              (None, 96, 128, 4)   292         activation_24[0][0]              
__________________________________________________________________________________________________
dropout_24 (Dropout)            (None, 96, 128, 4)   0           conv2d_63[0][0]                  
__________________________________________________________________________________________________
concatenate_32 (Concatenate)    (None, 96, 128, 74)  0           concatenate_31[0][0]             
                                                                 dropout_24[0][0]                 
__________________________________________________________________________________________________
conv2d_64 (Conv2D)              (None, 96, 128, 8)   600         concatenate_32[0][0]             
__________________________________________________________________________________________________
batch_normalization_25 (BatchNo (None, 96, 128, 8)   32          conv2d_64[0][0]                  
__________________________________________________________________________________________________
activation_25 (Activation)      (None, 96, 128, 8)   0           batch_normalization_25[0][0]     
__________________________________________________________________________________________________
conv2d_65 (Conv2D)              (None, 96, 128, 4)   292         activation_25[0][0]              
__________________________________________________________________________________________________
dropout_25 (Dropout)            (None, 96, 128, 4)   0           conv2d_65[0][0]                  
__________________________________________________________________________________________________
concatenate_33 (Concatenate)    (None, 96, 128, 78)  0           concatenate_32[0][0]             
                                                                 dropout_25[0][0]                 
__________________________________________________________________________________________________
conv2d_66 (Conv2D)              (None, 96, 128, 8)   632         concatenate_33[0][0]             
__________________________________________________________________________________________________
batch_normalization_26 (BatchNo (None, 96, 128, 8)   32          conv2d_66[0][0]                  
__________________________________________________________________________________________________
activation_26 (Activation)      (None, 96, 128, 8)   0           batch_normalization_26[0][0]     
__________________________________________________________________________________________________
conv2d_67 (Conv2D)              (None, 96, 128, 4)   292         activation_26[0][0]              
__________________________________________________________________________________________________
dropout_26 (Dropout)            (None, 96, 128, 4)   0           conv2d_67[0][0]                  
__________________________________________________________________________________________________
concatenate_34 (Concatenate)    (None, 96, 128, 12)  0           dropout_24[0][0]                 
                                                                 dropout_25[0][0]                 
                                                                 dropout_26[0][0]                 
__________________________________________________________________________________________________
conv2d_transpose_1 (Conv2DTrans (None, 192, 256, 12) 588         concatenate_34[0][0]             
__________________________________________________________________________________________________
concatenate_35 (Concatenate)    (None, 192, 256, 80) 0           conv2d_transpose_1[0][0]         
                                                                 concatenate_22[0][0]             
                                                                 concatenate_7[0][0]              
__________________________________________________________________________________________________
conv2d_68 (Conv2D)              (None, 192, 256, 8)  648         concatenate_35[0][0]             
__________________________________________________________________________________________________
batch_normalization_27 (BatchNo (None, 192, 256, 8)  32          conv2d_68[0][0]                  
__________________________________________________________________________________________________
activation_27 (Activation)      (None, 192, 256, 8)  0           batch_normalization_27[0][0]     
__________________________________________________________________________________________________
conv2d_69 (Conv2D)              (None, 192, 256, 4)  292         activation_27[0][0]              
__________________________________________________________________________________________________
dropout_27 (Dropout)            (None, 192, 256, 4)  0           conv2d_69[0][0]                  
__________________________________________________________________________________________________
concatenate_36 (Concatenate)    (None, 192, 256, 84) 0           concatenate_35[0][0]             
                                                                 dropout_27[0][0]                 
__________________________________________________________________________________________________
conv2d_70 (Conv2D)              (None, 192, 256, 8)  680         concatenate_36[0][0]             
__________________________________________________________________________________________________
batch_normalization_28 (BatchNo (None, 192, 256, 8)  32          conv2d_70[0][0]                  
__________________________________________________________________________________________________
activation_28 (Activation)      (None, 192, 256, 8)  0           batch_normalization_28[0][0]     
__________________________________________________________________________________________________
conv2d_71 (Conv2D)              (None, 192, 256, 4)  292         activation_28[0][0]              
__________________________________________________________________________________________________
dropout_28 (Dropout)            (None, 192, 256, 4)  0           conv2d_71[0][0]                  
__________________________________________________________________________________________________
concatenate_37 (Concatenate)    (None, 192, 256, 88) 0           concatenate_36[0][0]             
                                                                 dropout_28[0][0]                 
__________________________________________________________________________________________________
conv2d_72 (Conv2D)              (None, 192, 256, 8)  712         concatenate_37[0][0]             
__________________________________________________________________________________________________
batch_normalization_29 (BatchNo (None, 192, 256, 8)  32          conv2d_72[0][0]                  
__________________________________________________________________________________________________
activation_29 (Activation)      (None, 192, 256, 8)  0           batch_normalization_29[0][0]     
__________________________________________________________________________________________________
conv2d_73 (Conv2D)              (None, 192, 256, 4)  292         activation_29[0][0]              
__________________________________________________________________________________________________
dropout_29 (Dropout)            (None, 192, 256, 4)  0           conv2d_73[0][0]                  
__________________________________________________________________________________________________
concatenate_38 (Concatenate)    (None, 192, 256, 12) 0           dropout_27[0][0]                 
                                                                 dropout_28[0][0]                 
                                                                 dropout_29[0][0]                 
__________________________________________________________________________________________________
conv2d_transpose_2 (Conv2DTrans (None, 384, 512, 12) 588         concatenate_38[0][0]             
__________________________________________________________________________________________________
concatenate_39 (Concatenate)    (None, 384, 512, 100 0           conv2d_transpose_2[0][0]         
                                                                 concatenate_18[0][0]             
                                                                 concatenate_3[0][0]              
__________________________________________________________________________________________________
conv2d_74 (Conv2D)              (None, 384, 512, 8)  808         concatenate_39[0][0]             
__________________________________________________________________________________________________
batch_normalization_30 (BatchNo (None, 384, 512, 8)  32          conv2d_74[0][0]                  
__________________________________________________________________________________________________
activation_30 (Activation)      (None, 384, 512, 8)  0           batch_normalization_30[0][0]     
__________________________________________________________________________________________________
conv2d_75 (Conv2D)              (None, 384, 512, 4)  292         activation_30[0][0]              
__________________________________________________________________________________________________
dropout_30 (Dropout)            (None, 384, 512, 4)  0           conv2d_75[0][0]                  
__________________________________________________________________________________________________
concatenate_40 (Concatenate)    (None, 384, 512, 104 0           concatenate_39[0][0]             
                                                                 dropout_30[0][0]                 
__________________________________________________________________________________________________
conv2d_76 (Conv2D)              (None, 384, 512, 8)  840         concatenate_40[0][0]             
__________________________________________________________________________________________________
batch_normalization_31 (BatchNo (None, 384, 512, 8)  32          conv2d_76[0][0]                  
__________________________________________________________________________________________________
activation_31 (Activation)      (None, 384, 512, 8)  0           batch_normalization_31[0][0]     
__________________________________________________________________________________________________
conv2d_77 (Conv2D)              (None, 384, 512, 4)  292         activation_31[0][0]              
__________________________________________________________________________________________________
dropout_31 (Dropout)            (None, 384, 512, 4)  0           conv2d_77[0][0]                  
__________________________________________________________________________________________________
concatenate_41 (Concatenate)    (None, 384, 512, 108 0           concatenate_40[0][0]             
                                                                 dropout_31[0][0]                 
__________________________________________________________________________________________________
conv2d_78 (Conv2D)              (None, 384, 512, 8)  872         concatenate_41[0][0]             
__________________________________________________________________________________________________
batch_normalization_32 (BatchNo (None, 384, 512, 8)  32          conv2d_78[0][0]                  
__________________________________________________________________________________________________
activation_32 (Activation)      (None, 384, 512, 8)  0           batch_normalization_32[0][0]     
__________________________________________________________________________________________________
conv2d_79 (Conv2D)              (None, 384, 512, 4)  292         activation_32[0][0]              
__________________________________________________________________________________________________
dropout_32 (Dropout)            (None, 384, 512, 4)  0           conv2d_79[0][0]                  
__________________________________________________________________________________________________
concatenate_42 (Concatenate)    (None, 384, 512, 12) 0           dropout_30[0][0]                 
                                                                 dropout_31[0][0]                 
                                                                 dropout_32[0][0]                 
__________________________________________________________________________________________________
conv2d_80 (Conv2D)              (None, 384, 512, 32) 416         concatenate_42[0][0]             
__________________________________________________________________________________________________
conv2d_81 (Conv2D)              (None, 384, 512, 1)  33          conv2d_80[0][0]                  
__________________________________________________________________________________________________
stem_output (Activation)        (None, 384, 512, 1)  0           conv2d_81[0][0]                  
==================================================================================================
Total params: 77,703
Trainable params: 77,175
Non-trainable params: 528
__________________________________________________________________________________________________
None
